GAN/training_runs/1/saved_models/Condition_Augmentor_2.pth (torch_old, 132331 bytes, 3 tensors)

transformer.bias f4 [64]
000000 63 d0 b3 3b 58 de 94 ba 69 51 e4 3c 21 92 15 3c
       0.005487488 -0.0011357768 0.02787085 0.009129078
000010 98 f3 8f bc 2c 52 b8 bc b7 2f 06 bd e9 44 64 bd
       -0.01757221 -0.02250012 -0.03276035 -0.05572978
000020 a3 50 24 bd 6c 56 6e bc cd e2 90 bc 17 81 0a 3c
       -0.040115964 -0.014546972 -0.017686272 0.008453629
000030 1c 53 84 bc 42 66 e1 3c 72 61 b7 3c 27 70 b0 3a
       -0.01615291 0.02751458 0.022385333 0.0013461158
000040 d9 74 78 3c 85 04 8d 3c f1 20 02 bb 59 42 b7 3c
       0.015164577 0.01721407 -0.001985606 0.022370504
000050 44 79 1d bd 89 8a 89 3a 38 26 fd bc 3c c7 5c 3c
       -0.038445726 0.0010493557 -0.030902013 0.013475236
000060 8f d7 8f 3c da 9a 0b bc 08 9f aa bc 29 b6 3d 3d
       0.017558841 -0.008520806 -0.020827785 0.0463163
000070 53 58 f6 bc d5 4a c7 3c bd 8a 99 bc d8 d8 ad bc
       -0.030071413 0.024327675 -0.018742913 -0.021221563
000080 ae 6d 74 3d ce 9c a1 3d a6 95 c4 3d 47 8c e2 3c
       0.05967491 0.07891236 0.09598856 0.02765478
000090 5a 75 e4 3c e5 ff c4 3d f7 74 0a 3e 6c 39 ff 3c
       0.027887989 0.096191205 0.13521181 0.03115531
0000a0 20 b3 a5 3d cc 19 93 3d f7 85 6b 3d ab cb 6a 3d
       0.08090806 0.07182655 0.057500806 0.05732314
0000b0 29 7a 9c 3d 25 4d 15 3e 16 fc bf 3d af 77 b4 3d
       0.07640488 0.1458021 0.093742535 0.0881189
0000c0 da f1 10 3d 48 e5 74 3d 26 d0 56 3d f2 7d fb 3c
       0.035386898 0.059788972 0.0524446 0.030699704
0000d0 f0 e4 8c 3d e2 7d a1 3d 5b dc 9d 3d 8d 6e d8 3d
       0.06879604 0.07885338 0.07708045 0.10567961
0000e0 7d 26 90 3d 88 f8 8c 3d d9 e6 87 3d 89 3d 9c 3d
       0.07038591 0.06883341 0.066358276 0.076289244
0000f0 f1 52 b3 3d 87 f0 d1 3c 61 81 e3 3d e3 22 9d 3d
       0.08756054 0.025627388 0.111086614 0.0767267

transformer.linear.weight f4 [64, 512]
000000 f7 41 90 3f 24 d2 f3 3f f2 cf 41 3e 58 1f 12 3f
       1.1270131 1.9048505 0.18926981 0.57079077
000010 5a 5a 15 be 54 a9 01 40 c0 30 70 bf 03 0d ce 3e
       -0.14585248 2.02596 -0.93824387 0.40244302
000020 67 ce f4 3f bc dd 9f bf 3f ee 20 bf 46 31 65 be
       1.9125489 -1.2489543 -0.62863535 -0.22382078
000030 a0 c8 63 be 0e 2e 01 c0 6c e8 04 bf 25 09 8d be
       -0.22244501 -2.018436 -0.5191715 -0.2754604
000040 f6 be 24 3e 1c 85 58 bf aa 45 00 3f b0 52 24 bf
       0.16088471 -0.8457811 0.501063 -0.6418867
000050 2c ac e4 bd 4a c7 a0 3f 33 12 37 3e 25 27 6b 3e
       -0.11165652 1.2560818 0.17878036 0.22964151
000060 56 7f f2 be c4 13 46 bd df c7 09 3f ed 8f 3b bf
       -0.47362775 -0.048358694 0.53820604 -0.7326649
000070 07 ae e1 3e c1 6e 9f 3e 7e b8 e6 3e 3b 79 8d 3f
       0.44078085 0.31139186 0.4506263 1.1052622
000080 2d c5 80 be ca a0 95 bf ae 4c b9 be 3e 71 71 bf
       -0.25150433 -1.1689694 -0.36191314 -0.9431342
000090 ed f7 94 3f 38 b6 92 bd b1 b5 dc 3f e6 18 40 3d
       1.1638161 -0.07163662 1.7242948 0.046898745
0000a0 b2 30 ae bf 26 44 f8 3e 3f 65 9a 3e 08 11 fb 3e
       -1.3608611 0.48489493 0.3015537 0.4903643
0000b0 05 66 89 3f 73 be 9b be 01 6f ac 3d c3 d5 25 be
       1.0734259 -0.3041874 0.0841961 -0.16194825
0000c0 7c 85 97 3f 74 ca 38 bf 70 d0 fe be bc 9b ac 3e
       1.1837611 -0.7218392 -0.497684 0.33712566
0000d0 ac 7f 93 3f 4c eb 6e bf 70 aa 4a 3f e5 4a 77 bd
       1.1523337 -0.93327785 0.79166317 -0.06037416
0000e0 c9 ee 0e 3f 2b 66 4f bf 80 4c 26 bf 16 c8 74 3f
       0.5583311 -0.8101527 -0.6496048 0.95617807
0000f0 6d 51 9d bf 88 4c a0 bf 68 0c 74 bf 28 b3 00 3f
       -1.2290474 -1.2523355 -0.9533143 0.5027337
000100 85 60 87 3f 4f ce 94 3f 25 0f 6d bf c6 ec 36 3f
       1.057633 1.162546 -0.92601234 0.7145504
000110 06 b0 4f bf 11 a4 83 be 09 81 ae be a8 fc 04 40
       -0.81127965 -0.2571111 -0.3408282 2.077921
000120 81 ef 2f 3b fa 30 c3 be 6e c3 ba 3f 99 a5 3c bf
       0.0026845636 -0.38123304 1.459089 -0.7369018
000130 d8 47 65 bf ae d9 a2 3f 6d 6f 88 3e f3 19 15 3f
       -0.8956275 1.272268 0.2664751 0.5824272
000140 03 af 33 c0 d8 e9 08 bf 07 1e 28 bc d1 ba d0 bf
       -2.8075569 -0.5348182 -0.010261065 -1.6307012
000150 17 d3 1c 3f 98 07 43 3e c4 47 95 3f f4 8e a0 bf
       0.612596 0.19045866 1.1662526 -1.2543626
000160 3b 65 31 3f 65 2d d4 be e1 b3 c6 be 2d f9 c9 3f
       0.6929509 -0.41440883 -0.38809112 1.5779167
000170 e3 4a 81 bf 17 b8 c3 3e 4b 31 7d bf 9c d5 98 bc
       -1.0100979 0.38226387 -0.9890334 -0.018656544
000180 e8 65 b8 3e d1 af eb 3e 90 f8 19 3f df 28 19 be
       0.36015248 0.46032575 0.601449 -0.14956997
000190 0a 74 4d 3e 15 59 2a bf fe 60 c0 3e 5e e7 27 bf
       0.20063797 -0.6654218 0.37574 -0.65587413
0001a0 bf 35 9a 3e a3 31 e4 3f 97 00 8e 3e 47 99 03 3f
       0.3011913 1.7827648 0.27734825 0.5140576
0001b0 69 64 4f be 76 15 3c bf c9 4c a2 bf 0d e7 c9 3d
       -0.20253147 -0.73470247 -1.2679683 0.098585226
0001c0 84 ad 2c bf d8 48 66 3f 7a db ad 3f 1a f2 1e 3f
       -0.67452264 0.899549 1.3582604 0.6208817
0001d0 4a 4d ae 3f 73 cd 85 3f 95 dd b7 be fb 61 31 3e
       1.3617337 1.0453323 -0.3591124 0.17322533
0001e0 31 9f 74 bf db cd fd 3d 8a 90 9c bf 52 af a0 be
       -0.95555407 0.123927794 -1.223161 -0.3138376
0001f0 33 26 99 bf 7a 0e 85 3f a1 a5 cd be 0a bc c6 bf
       -1.1964782 1.0395043 -0.40165427 -1.5526135
000200 24 9e 44 3f bb 68 73 bf c2 9f 8c bf 31 8d d4 3d
       0.76803803 -0.9508168 -1.0986254 0.103784926
000210 8f 50 d2 3f 91 c3 52 3f 8c 02 50 3e 67 0a b8 bf
       1.6430835 0.8232966 0.20313472 -1.4378175
000220 ee 8c e8 3e 18 b6 9b bc 0e 8e 4a 3f ed 44 52 bf
       0.4542002 -0.019007728 0.7912301 -0.8213642
000230 58 59 89 3f e7 cc 99 bf 2b a0 69 3f 29 76 e2 3d
       1.073039 -1.2015656 0.9126002 0.110576935
000240 d5 46 96 3f 5e 92 8d bf 8d c4 53 3f be 79 06 3f
       1.1740366 -1.1060293 0.8272179 0.52529514
000250 f2 69 41 3f b5 91 fb be 0d 2b 96 3f 4c ae 05 c0
       0.75552285 -0.49134603 1.1731888 -2.0887632
000260 a3 41 28 40 61 fe a2 bf df 78 ae bf 45 dc ec 3f
       2.6290061 -1.273388 -1.3630637 1.8504721
000270 e4 cd 6a bf 15 67 74 bf fb 8f 26 bf b8 e0 3f bf
       -0.91720414 -0.9546979 -0.65063447 -0.7495227
000280 21 e7 70 3f 78 99 ae 3e 10 07 e7 be 8a d5 f1 be
       0.94102675 0.34101462 -0.45122576 -0.4723323
000290 eb ab 71 3f d9 7e b5 bf 14 e9 a2 3d 59 ec 43 3e
       0.9440295 -1.4179336 0.079546124 0.19133128
0002a0 e9 9e b5 3d 7f 37 86 bf 55 b0 05 3f f0 3a fa bd
       0.088682 -1.0485686 0.52222186 -0.12218273
0002b0 01 5a 8d 3e 92 c7 31 bf 44 92 fc 3f bf e2 ff 3e
       0.2760773 -0.69445145 1.9732137 0.4997768
0002c0 18 cc 33 bc 96 43 ef be 67 af 05 3f 2d 87 1c be
       -0.010973953 -0.4673125 0.5222077 -0.1528594
0002d0 b5 de 91 3f 3f 8c 38 3c 02 c0 89 bc a2 47 8e 3f
       1.139609 0.011263906 -0.01681519 1.1115611
0002e0 05 25 92 3d 66 d0 0c be 64 c1 76 3c c4 84 24 c0
       0.07135967 -0.13751373 0.015060756 -2.5706034
0002f0 98 24 4e 3e 73 cb 41 bf 79 a8 60 3f ba 96 01 3e
       0.20131147 -0.75701064 0.8775707 0.12655154
000300 53 85 88 bf bd 5e 4b 3f 3d 1a a6 3d 27 c7 ee be
       -1.0665687 0.79441434 0.08110473 -0.46636316
000310 eb be 89 bf 04 27 52 bf 88 c2 d7 be c5 3b 42 3f
       -1.0761389 -0.82090783 -0.42140603 0.7587245
000320 f8 f8 86 3e 2e ee fa bf 1c 26 a4 3e c4 14 66 bd
       0.26361823 -1.9603937 0.32060325 -0.056172147
000330 cd 36 63 bf 5b e9 93 3e cb 21 2b 3f 21 a3 14 c0
       -0.88755494 0.28888974 0.6684844 -2.3224566
000340 1e 17 f9 bd e7 2f ef be a6 87 12 c0 9f 2f 94 3f
       -0.121626124 -0.46716234 -2.2895293 1.1577033
000350 1c f0 09 bf a0 0a 60 bf c1 ca c7 3f 66 d6 dd 3f
       -0.53882 -0.8751621 1.560875 1.7331054
000360 38 17 c9 be fc 86 a7 3f e9 23 84 3f 91 8e ee 3d
       -0.39275527 1.3088069 1.0323459 0.11648286
000370 d4 6a 4f 3f 1c d4 20 bf 2f 9c e7 bf 1d 23 e3 be
       0.8102238 -0.62823653 -1.8094538 -0.44362727
000380 81 f0 b8 be 7f 14 ab bf 70 71 0c c0 38 b3 6f bd
       -0.3612099 -1.336563 -2.1944237 -0.058520526
000390 4b ed 87 3f 79 81 8b 3f ef 67 3b bf f6 d8 67 bf
       1.0619291 1.0898887 -0.73205465 -0.9056543
0003a0 10 60 3c 3d ee 82 83 bd af ab 2e 3e ec 47 cd bf
       0.04599005 -0.06421457 0.1705768 -1.6037574
0003b0 45 a1 26 bf 90 c4 13 3f bb 58 45 bc cc 1c cb be
       -0.6508983 0.57721806 -0.012045081 -0.39670408
0003c0 06 7a 12 c0 e9 52 30 bf 6c 04 44 40 a3 d9 5e bf
       -2.2886977 -0.6887651 3.06277 -0.8705084
0003d0 ad 13 85 bf e1 94 4d 3e 49 8a c8 bf dd b5 a2 3f
       -1.039663 0.20076324 -1.5667201 1.271175
0003e0 ca 1c 4d be 6a 30 a3 bd 26 d9 12 3f 86 4f 22 bf
       -0.20030513 -0.079682186 0.5736259 -0.63402593
0003f0 20 73 95 bf 71 77 fe 3f 65 85 0b c0 ce ff 14 bd
       -1.1675758 1.9880201 -2.1800168 -0.036376767

transformer.linear.bias f4 [64]
000000 58 3f b2 3c 6c a6 22 3c d1 a8 99 bb 43 23 85 3b
       0.02175872 0.009927373 -0.004689314 0.0040630414
000010 e9 6e 87 bc a2 82 65 bd 9b a9 d1 bc 05 a3 9d bd
       -0.016532378 -0.056032784 -0.02559357 -0.07697109
000020 87 c8 e4 bc b5 a7 4c bd 90 09 18 bd 62 90 89 bc
       -0.02792765 -0.049964625 -0.037118495 -0.01679248
000030 15 1a 72 bd ab b8 12 3c 6a c4 ff 3c 83 f3 f3 bb
       -0.059106905 0.008955161 0.031221587 -0.0074448003
000040 49 6a 48 3d 1c 78 2c 3d 6e 8d 33 bd ad b2 73 3d
       0.048929486 0.042106733 -0.04383605 0.05949657
000050 4f ae 85 bd d6 d7 1c bd 8b 08 84 bd 49 54 cb b9
       -0.06527387 -0.038291775 -0.06446942 -0.00038781975
000060 29 61 1e 3d 2f 7e de 3c ee 5e 33 bc 6c 13 89 3c
       0.038666878 0.027159778 -0.010947926 0.016732894
000070 65 17 6c bd 9a aa 79 3d a7 ed 24 bc e3 7f 81 3c
       -0.0576395 0.060953714 -0.010066426 0.015808051
000080 38 97 d1 3c d0 58 8d 3d 6d a5 09 3e 2c 2f f8 bb
       0.025584802 0.06901705 0.13442011 -0.0075739827
000090 2b 87 8f 3d 47 09 b5 3d 5f 21 36 3e 40 a2 8c 3c
       0.07008203 0.0883966 0.17786168 0.01716721
0000a0 0c c7 cf 3d 04 27 c0 3d fa f6 78 3c f3 e7 a8 3d
       0.10145387 0.09382442 0.015195603 0.08247366
0000b0 48 76 b0 3d a7 bd d5 3d cf e6 e9 3d 3a ec 92 3d
       0.0861631 0.10436564 0.11420976 0.07173963
0000c0 ea c7 8b 3d 2b d1 c3 3c ff 6d a0 3d 39 f4 63 3d
       0.0682524 0.02390345 0.0783348 0.05565283
0000d0 83 45 f8 3c 7a 78 eb 3d 57 e3 6b 3d 10 46 cf 3d
       0.030306583 0.114975885 0.057589855 0.10120785
0000e0 6f 82 c2 3d d8 31 8c 3d 6b da 77 3d 6c c8 56 3d
       0.094975345 0.068454444 0.060511034 0.05243723
0000f0 a9 4c f5 3d a2 fc 13 bc 7a 43 ec 3d dd 6a 18 3d
       0.119775124 -0.0090324 0.11536308 0.037211288
