GAN/training_runs/1/saved_models/Condition_Augmentor_3.pth (torch_old, 132331 bytes, 3 tensors)

transformer.bias f4 [64]
00000000: ad10 aeba 9ce3 4abc b5cd 693c 2641 14bc
00000010: 6ac5 a23b e403 b2bb 3edb a7bc 31fe 0cbd
00000020: 5aec 07bd f3f9 3dbc cd26 ccbb d23c cd3c
00000030: 5f7e b13b 6fe0 833c 971c c63b 7d08 363c
00000040: 563b 4b3c 2d01 813c 72c8 d93b 2296 a23c
00000050: b6d7 f7bc 1f43 c93a d87c 0bbd b7ec 293c
00000060: 50cc 033c 75a1 5dbc 7f47 daba 570b 133d
00000070: f615 86bc 7716 433c 89ea afbb 9400 0dbd
00000080: 6892 9c3d f89f cf3d e84f 023e 6d82 1b3d
00000090: 0676 143d cf6b f63d 27b3 313e 7924 273d
000000a0: b607 d93d 1776 bf3d 9aa4 973d 20d7 923d
000000b0: 926d bb3d e3d7 353e b436 fa3d 683d df3d
000000c0: ad64 313d c65a a03d 2e35 893d 7699 203d
000000d0: 85b3 a43d 0165 d23d ee08 cb3d 67bb 0d3e
000000e0: faf1 ad3d d723 ac3d 420e a33d 87a7 c93d
000000f0: 1eb8 eb3d 4c4f f93c fad9 133e 817b c63d
-0.0013280116 -0.012383368 0.014270236 -0.009048736 0.0049673812 -0.0054325927 -0.020490285 -0.034422103
-0.033184387 -0.011595237 -0.0062302114 0.025053415 0.005416676 0.01609823 0.0060458886 0.011110422
0.0124042835 0.015747631 0.0066462094 0.01984698 -0.030254226 0.0015355087 -0.034054607 0.010371379
0.008044317 -0.013527264 -0.0016653388 0.035899486 -0.016367894 0.0119072115 -0.005368535 -0.03442438
0.07645112 0.101379335 0.12725794 0.03796618 0.03624537 0.120322816 0.17353497 0.040806267
0.10597174 0.09348696 0.07404442 0.07169938 0.09151758 0.17758135 0.12217465 0.10900384
0.043308903 0.07829814 0.06699596 0.03920885 0.08042053 0.10273171 0.099138126 0.1384102
0.08493419 0.084052734 0.07961704 0.098464064 0.11509727 0.03043332 0.1443862 0.09691525

transformer.linear.weight f4 [64, 512]
00000000: 0dda 8f3f 807c f53f daed 423e cd7b 113f
00000010: ffc1 19be ddf2 0140 12f1 6ebf 6df8 cb3e
00000020: 9039 f43f dac5 9ebf ccef 1bbf afc8 67be
00000030: 0d80 6bbe 2ef0 01c0 7082 04bf 7fb4 8fbe
00000040: d8a3 313e 4aa8 58bf 6ce2 003f eb28 26bf
00000050: 5006 fdbd 8876 a13f 762c 3a3e be61 6d3e
00000060: 48df eebe 800d 1fbd 9879 0b3f 9c37 3abf
00000070: 072d e03e c902 9a3e 208c ea3e 418a 8c3f
00000080: 28a9 82be 1268 94bf 7d75 babe 8812 6fbf
00000090: a027 963f f4ae 74bd 97c5 db3f e01e 593d
000000a0: 7f7d adbf bc6c f43e d924 973e fa5d 003f
000000b0: cbdd 883f 91c3 9fbe 4d61 893d a035 18be
000000c0: 6e23 963f 9af6 36bf b11d 00bf 337f a83e
000000d0: 58a9 943f a37b 6dbf 8911 493f b4b4 8ebd
000000e0: 03a2 0c3f 27eb 4fbf e0ef 27bf 7cec 733f
000000f0: fef6 9dbf 943c 9fbf 7b7c 71bf 9945 023f
00000100: ed4d 873f a123 953f fca7 6ebf df0b 373f
00000110: 67f3 51bf 6a9a 86be c537 b4be 829f 0440
00000120: f02a 983b e7d5 c7be 2d10 ba3f 737d 3abf
00000130: 9879 67bf c239 a13f d072 873e 62eb 163f
00000140: 95fd 33c0 e786 09bf 2d5e 8abc 4e10 d2bf
00000150: 02e0 1d3f 8118 583e 3b53 963f bb23 9fbf
00000160: 0270 2d3f 1788 d3be b845 cabe b9df ca3f
00000170: bfa7 81bf 9fd0 c13e 54c6 7cbf bc05 f2bc
00000180: 497b b53e 27b3 ed3e c371 1a3f 2911 25be
00000190: 1715 4d3e 8883 28bf 0041 bd3e c989 29bf
000001a0: e561 9b3e c502 e33f b8ac 933e 3141 053f
000001b0: ca01 44be 38aa 3cbf 2e6f a3bf 1abe b83d
000001c0: 570d 2abf 7bbe 643f 169c ae3f ca2d 1f3f
000001d0: bc8e ad3f 4f68 863f 2352 bbbe 3b34 3d3e
000001e0: 87fc 72bf 0ff9 083e a414 9bbf 16da a3be
000001f0: c939 9bbf ccd5 843f 0a80 d0be 02dc c5bf
00000200: 0609 443f 7362 71bf 71b8 8bbf 09bd 923d
00000210: b307 d33f d286 4f3f 7bdb 4e3e b828 b7bf
00000220: eb86 ea3e d50a cabc 27c2 493f a202 53bf
00000230: 7d5b 8a3f 56cc 98bf 3cb6 6a3f fb45 e73d
00000240: 45b8 973f 1e3a 8ebf 9da0 543f 2022 063f
00000250: e20f 3f3f bd1f febe d1e0 963f 553e 05c0
00000260: 22d6 2840 f7c4 a3bf e0dd afbf 33ac ed3f
00000270: c00b 69bf 32fb 75bf 0dbe 23bf 1848 3ebf
00000280: 9ab0 723f eb34 b03e fe84 eabe 334c edbe
00000290: 154f 743f 7f48 b4bf 0a13 b33d 7958 543e
000002a0: fe09 bf3d 573f 85bf c9a9 083f b161 05be
000002b0: e20a 943e ff90 36bf 2dbd fb3f 5325 fc3e
000002c0: 3317 c3bc 75a3 f3be 697f 073f 3fe8 1bbe
000002d0: d78f 923f ca6c b53a 09c1 8fbc f443 8d3f
000002e0: 81b2 ab3d af2a 12be 9d85 9cbb 28c6 24c0
000002f0: 7050 5f3e 8f64 3fbf 5c30 5f3f 69b6 053e
00000300: ae00 88bf 51f1 4c3f e163 bc3d 8788 ebbe
00000310: c12d 8bbf 97e0 55bf 4e6a d4be 74a5 403f
00000320: 62ff 873e 3e29 fbbf 164f a33e 51f7 86bd
00000330: e943 64bf fd75 903e 7606 293f 0d6d 14c0
00000340: 2182 04be 58cf e8be c0f0 12c0 d8aa 953f
00000350: 5044 07bf e890 62bf 1d52 c93f 8905 db3f
00000360: bd12 c6be b3be a83f 53dc 823f 63f1 f83d
00000370: 5548 523f e2d0 1fbf 00bc e9bf 3950 e3be
00000380: 5975 b5be 1568 abbf 9661 0cc0 41d8 83bd
00000390: 9434 863f b29a 8b3f d671 39bf e6f9 69bf
000003a0: 9222 103d b65a 5cbd 6206 1b3e a806 ccbf
000003b0: 0480 28bf e026 123f 2fa6 aabc 188f c9be
000003c0: e761 12c0 33f7 2bbf 48aa 4340 2483 5ebf
000003d0: 8dca 84bf ed6d 503e 503e c7bf 8102 a23f
000003e0: 8361 42be c7e6 9fbd 1d49 113f c080 26bf
000003f0: 92d5 94bf 5783 fc3f b357 0bc0 2e27 3abd
1.1238419 1.9178619 0.19036046 0.5682953 -0.1501541 2.0304482 -0.93336594 0.3983797
1.9080067 -1.240413 -0.60912776 -0.22635148 -0.22998066 -2.0302844 -0.5176153 -0.28067395
0.17347658 -0.8463179 0.5034549 -0.64906186 -0.1235472 1.2614298 0.18181023 0.23181817
-0.46654725 -0.038831234 0.5448241 -0.72741103 0.43784353 0.3008025 0.45810032 1.0979692
-0.2551968 -1.159426 -0.3641776 -0.9338765 1.1730843 -0.05973716 1.7169675 0.05300796
-1.3553923 0.47739208 0.295203 0.50143397 1.0692686 -0.31203893 0.06708012 -0.14864206
1.1729562 -0.71470034 -0.50045305 0.32909545 1.161418 -0.9276678 0.7854238 -0.0696806
0.5493471 -0.8121819 -0.65600395 0.9528272 -1.2341001 -1.2440362 -0.9433057 0.5088745
1.0570656 1.1651498 -0.93225074 0.7150249 -0.8201203 -0.26289684 -0.351988 2.0722356
0.0046437904 -0.39030382 1.4536186 -0.7284767 -0.9041991 1.2595751 0.26454782 0.58952916
-2.8123524 -0.5372147 -0.01689061 -1.6411226 0.61669934 0.21103097 1.174415 -1.2432779
0.67749035 -0.41314766 -0.39506316 1.5849525 -1.0129317 0.37854478 -0.98740125 -0.02954375
0.35445622 0.46425745 0.60329837 -0.16119827 0.20027576 -0.658257 0.36963654 -0.6622587
0.30348125 1.773522 0.2884271 0.520526 -0.19141307 -0.73697233 -1.2768304 0.09020634
-0.66426605 0.8935315 1.3641384 0.62179244 1.3559184 1.0500582 -0.36586103 0.18476956
-0.94916576 0.13376258 -1.2115674 -0.32002324 -1.212701 1.0377746 -0.40722686 -1.5457766
0.7657627 -0.94290847 -1.0915662 0.07164962 1.6486725 0.81065094 0.20200913 -1.4309301
0.4580606 -0.024663368 0.7881188 -0.8242589 1.080917 -1.1937358 0.9168432 0.112926446
1.185311 -1.1111486 0.83057576 0.5239582 0.7463361 -0.4963359 1.1787359 -2.0819294
2.6380696 -1.2794484 -1.3739586 1.8568176 -0.91033554 -0.9608642 -0.6396187 -0.74328756
0.9480072 0.34415373 -0.4580459 -0.46347198 0.9543317 -1.4084624 0.08743866 0.20736875
0.09328078 -1.0409955 0.5338407 -0.13025548 0.28914553 -0.71314996 1.9667107 0.49247226
-0.023814773 -0.47585645 0.5292879 -0.15225314 1.1450146 0.0013841626 -0.017548101 1.1036363
0.08383656 -0.14274095 -0.00477667 -2.5745945 0.21808028 -0.74762815 0.87183166 0.13057865
-1.0625207 0.8005572 0.09198738 -0.460026 -1.0873338 -0.8354582 -0.41487354 0.7525246
0.2656203 -1.9621961 0.31896275 -0.065901406 -0.8916612 0.28215018 0.66025484 -2.319156
-0.12940265 -0.4547069 -2.2959442 1.1692762 -0.5283861 -0.8850236 1.5728184 1.7111064
-0.3868617 1.3183197 1.0223488 0.12155416 0.8214162 -0.62428105 -1.8260498 -0.44397143
-0.35441092 -1.3391138 -2.1934562 -0.064377315 1.0484796 1.0906584 -0.72439325 -0.9139694
0.03518922 -0.053797446 0.15139154 -1.5939531 -0.65820336 0.5709057 -0.020831196 -0.39366984
-2.2872255 -0.6717407 3.0572681 -0.86918855 -1.0374314 0.20354433 -1.5565891 1.2657014
-0.1898251 -0.07807689 0.56752187 -0.65040207 -1.1627676 1.9727582 -2.1772277 -0.04544752

transformer.linear.bias f4 [64]
00000000: 61d4 743c 250b adba c4d4 95bc a641 67bc
00000010: 28d8 c43b 079a 1fbd d84a 5abc 52ff 63bd
00000020: fbff abbc 9690 40bd 013a d2bc bc0d 4ab9
00000030: bec0 19bd e44b 21bb 3cd4 733c e302 183b
00000040: ee1b 3d3d 6d76 263d 5332 10bd 8c5c 693d
00000050: 39cf 69bd 12da 1abd 687d 8abd aad4 64bb
00000060: f2d0 ee3c e27a b53c 3296 063c 04f7 ce3b
00000070: 34f6 33bd cfca 463d 2aca 583b 89bc 2a3b
00000080: b082 2d3d fa5b bb3d 7eaa 293e 6166 333b
00000090: d8a4 a03d 3175 e63d 8f5f 5d3e c2b1 db3c
000000a0: d18d 013e 4f83 ec3d f700 023d 3b59 c63d
000000b0: b169 cf3d 9069 0b3e b810 123e f3b1 bd3d
000000c0: 5301 9c3d d8b8 2d3d 1f3b be3d 5967 833d
000000d0: e9bf 2b3d cd2f 0e3e 3f1e a33d 2827 093e
000000e0: ec4d e03d 275d ab3d 9e14 973d 33ce 983d
000000f0: ebd8 163e 187e 8abb 073b 183e 171c 6b3d
0.014943213 -0.0013202174 -0.018289931 -0.014114773 0.006007213 -0.03896525 -0.013323508 -0.055663414
-0.020996084 -0.047012888 -0.025662424 -0.00019269338 -0.03753733 -0.0024611885 0.014882144 0.002319508
0.046169214 0.040640283 -0.035204243 0.056973025 -0.05708239 -0.037805624 -0.067622006 -0.0034916797
0.029152367 0.022153322 0.00821452 0.0063160677 -0.04393597 0.048533257 0.0033079484 0.0026052317
0.04236096 0.091484025 0.16568944 0.0027374255 0.078439415 0.11252821 0.21618484 0.02681816
0.12651755 0.115484826 0.0317392 0.09684988 0.10127581 0.13614488 0.1426419 0.09262457
0.0761744 0.04241261 0.0928862 0.064161964 0.041931067 0.13885422 0.07964753 0.13393843
0.109523624 0.08367377 0.07376979 0.074612044 0.14731185 -0.0042264573 0.14866267 0.057399835
