GAN/training_runs/1/saved_models/Condition_Augmentor_0.pth (torch_old, 132331 bytes, 3 tensors)

transformer.bias f4 [64]
0	0x3daf0d36	0.08547442
1	0x3d79442a	0.060856022
2	0x3dd50dea	0.104030445
3	0x3dae2180	0.08502483
4	0xbdbbf21c	-0.09177038
5	0xbde86918	-0.1134817
6	0xbdb604d1	-0.088876374
7	0xbdfad85d	-0.12248299
8	0xbdd93aba	-0.10606904
9	0xbdea6468	-0.11444932
10	0xbdd4d7ec	-0.10392746
11	0xbd273709	-0.04082397
12	0xbdc3ed0e	-0.09566699
13	0x3de9f841	0.11424304
14	0x3d9f00c3	0.07763817
15	0xbdb857ab	-0.09001096
16	0x3de192f3	0.110143565
17	0x3dbab53a	0.091165975
18	0xbdc1d33d	-0.09464119
19	0x3ddf721b	0.10910436
20	0xbdf6141f	-0.120155565
21	0xbda1924e	-0.078892335
22	0xbdd82d69	-0.10555536
23	0x3d228be3	0.039684188
24	0x3dc03ac7	0.09386211
25	0x3dbe862b	0.09302934
26	0xbdcce339	-0.10004277
27	0x3ddef820	0.1088717
28	0xbddf82b5	-0.10913602
29	0x3dc89015	0.097931065
30	0xbdde15e6	-0.108440205
31	0x3d877959	0.06614942
32	0x3cfb5221	0.03067881
33	0x3d226833	0.039650153
34	0x3d1971fd	0.037462223
35	0x3c31a4da	0.010842526
36	0x3c4c7760	0.012479633
37	0x3d4e6397	0.050387945
38	0x3d5b44de	0.053532474
39	0x3ca294ca	0.019846339
40	0x3d13607f	0.035980698
41	0x3d08a5e3	0.033361327
42	0x3cec31e2	0.02883238
43	0x3cc2d64b	0.023783823
44	0x3d2b18ef	0.041771825
45	0x3d9dfcb6	0.077142164
46	0x3d23571f	0.039878007
47	0x3d4348cc	0.047676846
48	0x3caa848f	0.020815162
49	0x3ce76768	0.02824755
50	0x3cd786b4	0.026309349
51	0x3c315d09	0.010825404
52	0x3d01e698	0.031714052
53	0x3d133f15	0.03594883
54	0x3d1b17f2	0.037864633
55	0x3d2ba822	0.04190839
56	0x3d374bb8	0.044749945
57	0x3d18d8e7	0.03731623
58	0x3d037612	0.032095022
59	0x3d191034	0.037368968
60	0x3d14ca16	0.036325537
61	0x3ca22a87	0.01979567
62	0x3d39f37e	0.045398228
63	0x3d21cbca	0.03950099

transformer.linear.weight f4 [64, 512]
0	0x3f9717da	1.1804154
1	0x3fe95385	1.8228613
2	0x3e2336d9	0.15938891
3	0x3f24833e	0.6426276
4	0xbe33930c	-0.17536563
5	0x3ffa26ed	1.9543129
6	0xbf6e5aa4	-0.93107057
7	0x3ef61109	0.48059872
8	0x3ffef811	1.9919454
9	0xbfa9fea4	-1.3280835
10	0xbf2c3c51	-0.67279536
11	0xbe920c3c	-0.2852496
12	0xbe0fdf94	-0.14050132
13	0xbff8fe25	-1.9452559
14	0xbf162581	-0.58650976
15	0xbe417d19	-0.18895377
16	0x3db1b5cc	0.08677253
17	0xbf6a51ff	-0.91531366
18	0x3ed5e911	0.41779378
19	0xbf0f0ec1	-0.5588189
20	0xbd10c775	-0.035346467
21	0x3f960df3	1.1723007
22	0x3db6acd8	0.08919686
23	0x3e6c78bb	0.2309293
24	0xbf0bbf5b	-0.5458886
25	0xbe037126	-0.12836131
26	0x3effa675	0.49931684
27	0xbf4d0fc0	-0.8010216
28	0x3ec1f53b	0.37882408
29	0x3ebbcd89	0.36680248
30	0x3ebe381e	0.3715219
31	0x3f8f433d	1.1192394
32	0xbe42ce29	-0.19023956
33	0xbf9d1675	-1.2272478
34	0xbe8ce29e	-0.27516645
35	0xbf82b6a8	-1.0211992
36	0x3f8a8d54	1.082438
37	0xbe1989e5	-0.14994009
38	0x3fe74678	1.806838
39	0xbcadc481	-0.021211864
40	0xbfb889f2	-1.4417098
41	0x3f10e6f5	0.5660241
42	0x3ec30e43	0.38096818
43	0x3ed60c98	0.41806483
44	0x3f91a177	1.13774
45	0xbe668192	-0.22510365
46	0x3e20098a	0.15628639
47	0xbe26213e	-0.16223618
48	0x3fa14e29	1.2601978
49	0xbf4c49f4	-0.79800344
50	0xbf0487ed	-0.51769906
51	0x3eca982b	0.3956922
52	0x3f8966e7	1.0734528
53	0xbf7dfe5a	-0.99216235
54	0x3f5dbab4	0.8661301
55	0x3cb455c7	0.022013558
56	0x3f2188fb	0.6309964
57	0xbf3cbf2f	-0.73729223
58	0xbf1304d7	-0.5742926
59	0x3f7fce12	0.99923813
60	0xbf92f73d	-1.1481701
61	0xbfaaedc3	-1.3353809
62	0xbf825603	-1.0182499
63	0x3ed8500b	0.42248568
64	0x3f856766	1.042218
65	0x3f8c60f0	1.0967083
66	0xbf58ee8d	-0.84739
67	0x3f48d8a2	0.78455555
68	0xbf3b8963	-0.7325651
69	0xbe34eccc	-0.17668456
70	0xbe8968b9	-0.2683771
71	0x400a0afb	2.1569202
72	0xbd966f80	-0.07345486
73	0xbe9f0878	-0.3106115
74	0x3fc056d7	1.5026501
75	0xbf522b08	-0.8209691
76	0xbf5080be	-0.81446445
77	0x3fa9b748	1.3259058
78	0x3e68dacb	0.22739713
79	0x3f034bf5	0.51287776
80	0xc02eaefd	-2.7294304
81	0xbefe5ba3	-0.49679288
82	0x3d8a1112	0.06741537
83	0xbfc7d42c	-1.5611625
84	0x3f0a309f	0.5398044
85	0x3e0446e5	0.12917669
86	0x3f8c1d98	1.0946531
87	0xbfa29ea5	-1.2704664
88	0x3f481e34	0.78171086
89	0xbef5f834	-0.48040926
90	0xbe9d3f5c	-0.30712402
91	0x3fced14b	1.6157621
92	0xbf75305c	-0.95776916
93	0x3eec2515	0.4612204
94	0xbf6b8d6c	-0.9201267
95	0x3d862521	0.065500505
96	0x3eda2bc2	0.4261151
97	0x3ec89ded	0.39182988
98	0x3f166d64	0.58760667
99	0xbdacfaf1	-0.08446301
100	0x3dfbe14a	0.1229883
101	0xbf3e9143	-0.744404
102	0x3eeb0fba	0.45910436
103	0xbf152eaf	-0.5827436
104	0x3e822dae	0.25425476
105	0x3fef13bc	1.8677897
106	0x3e628a77	0.22123133
107	0x3edd8f20	0.43273258
108	0xbe925ed7	-0.28587982
109	0xbf4c70b4	-0.7985947
110	0xbf9834cd	-1.1891114
111	0x3e3bcfa4	0.18340927
112	0xbf2dca57	-0.6788687
113	0x3f52210b	0.8208167
114	0x3fa3b96c	1.2790961
115	0x3f0e09e4	0.5548384
116	0x3fb82d1f	1.438877
117	0x3f781389	0.9690481
118	0xbecc8842	-0.39947706
119	0x3e40d53d	0.18831344
120	0xbf6f67ec	-0.9351795
121	0x3d2c9271	0.042131845
122	0xbfa4d413	-1.287722
123	0xbe6db368	-0.2321297
124	0xbf9db0cf	-1.2319583
125	0x3f82e9ea	1.0227635
126	0xbeae30f2	-0.34021717
127	0xbfd0fb65	-1.632672
128	0x3f3486ac	0.7051799
129	0xbf83e3fc	-1.030395
130	0xbf9773a8	-1.183217
131	0x3dddb8d9	0.108262725
132	0x3fc89a32	1.5672057
133	0x3f663b28	0.89934015
134	0x3e50f0b4	0.20404321
135	0xbfc27f03	-1.5195011
136	0x3ec03ba3	0.375455
137	0xbdc2d1d2	-0.09512676
138	0x3f5ac7d4	0.85461164
139	0xbf3f2e4b	-0.7468001
140	0x3f7f8b0d	0.9982155
141	0xbfa40ae7	-1.2815827
142	0x3f55fc30	0.8358793
143	0x3daa3ab4	0.08311978
144	0x3f8c34f3	1.0953659
145	0xbf8355fb	-1.0260614
146	0x3f49f6cd	0.78892213
147	0x3f0748e2	0.52845585
148	0x3f527680	0.82212067
149	0xbed2ec78	-0.41196036
150	0x3f8f38a1	1.1189157
151	0xc00a92db	-2.1652133
152	0x402685ee	2.6019244
153	0xbf98aac6	-1.1927116
154	0xbfa54b1b	-1.2913545
155	0x3fe306ec	1.7736487
156	0xbf6e8c44	-0.9318278
157	0xbf7b9143	-0.98268527
158	0xbf3b9d67	-0.7328705
159	0xbf51a1fd	-0.818878
160	0x3f5d197e	0.86367023
161	0x3e93f290	0.28895998
162	0xbebc150a	-0.36734802
163	0xbf0d48bd	-0.55189115
164	0x3f5bb787	0.85826916
165	0xbfbf36b3	-1.4938568
166	0x3b11765f	0.0022195799
167	0x3e0121eb	0.12610595
168	0x3c046bd1	0.008082346
169	0xbf9016e6	-1.1256988
170	0x3ef93e93	0.48680553
171	0xbd2e7507	-0.042592075
172	0x3e4e424c	0.20142478
173	0xbf1f2c85	-0.62177306
174	0x40037ae8	2.0543766
175	0x3ef77d6a	0.4833787
176	0x3cc266dd	0.02373069
177	0xbed069ae	-0.40705627
178	0x3ee82b43	0.45345506
179	0xbdcb7e14	-0.09936157
180	0x3f882cdd	1.0638691
181	0x3db6dad9	0.08928461
182	0xbda2e314	-0.07953468
183	0x3f98cddc	1.1937823
184	0x3ddecbdd	0.108787276
185	0xbdaa9df1	-0.08330906
186	0x3cf7a407	0.030229582
187	0xc020461e	-2.5042796
188	0x3e004389	0.12525763
189	0xbf4914f6	-0.7854761
190	0x3f75f261	0.96072966
191	0x3d366d79	0.044537995
192	0xbf922840	-1.1418533
193	0x3f387142	0.7204782
194	0x3c8bb8d2	0.017055903
195	0xbf0a3735	-0.5399049
196	0xbf8333b4	-1.0250154
197	0xbf3d400b	-0.73925847
198	0xbf010af7	-0.50407356
199	0x3f562476	0.83649385
200	0x3e7f6a20	0.24942827
201	0xbff3bb29	-1.9041492
202	0x3eb70721	0.35747626
203	0x3caa9934	0.020825006
204	0xbf5dde82	-0.86667645
205	0x3eba0a8f	0.3633618
206	0x3f3fd2dc	0.7493112
207	0xc013b355	-2.3078206
208	0xbd1858ae	-0.037193947
209	0xbecec8db	-0.40387616
210	0xc00ddad2	-2.2164807
211	0x3f8a5675	1.0807635
212	0xbeffd07e	-0.49963754
213	0xbf4f04cd	-0.808667
214	0x3fbe6c04	1.4876714
215	0x3fe4df60	1.7880669
216	0xbee1a308	-0.44069695
217	0x3f9e1bb2	1.2352202
218	0x3f8ecbf5	1.1155993
219	0x3d89c761	0.06727482
220	0x3f3c39e6	0.73525846
221	0xbf339299	-0.70145565
222	0xbfddc81d	-1.7326695
223	0xbed71f73	-0.4201618
224	0xbee1e3ae	-0.44119018
225	0xbfaac799	-1.3342162
226	0xc01093cd	-2.259021
227	0xbd84b454	-0.06479707
228	0x3f917f5a	1.136699
229	0x3f83da7f	1.0301055
230	0xbf4ae916	-0.7926191
231	0xbf5388cc	-0.8263061
232	0x3def2eb7	0.11678832
233	0xbdf749f1	-0.1207465
234	0x3e1f06fe	0.15530011
235	0xbfd7aa58	-1.684886
236	0xbf14add9	-0.5807777
237	0x3f275664	0.65366197
238	0x3d892295	0.06696049
239	0xbeef3f09	-0.4672778
240	0xc015e8e8	-2.3423405
241	0xbf451bb7	-0.76995414
242	0x4048cb16	3.1373954
243	0xbf704f88	-0.93871355
244	0xbf8c2125	-1.0947615
245	0x3ded8bd1	0.115989335
246	0xbfd31604	-1.6491094
247	0x3f9d3e69	1.2284671
248	0xbe827db2	-0.25486523
249	0xbde49e3a	-0.11162992
250	0x3f268dcb	0.6506011
251	0xbf10fd6f	-0.5663671
252	0xbfa03ce3	-1.2518581
253	0x3ffac550	1.9591465
254	0xc00f4028	-2.2382908
255	0xbdbace3c	-0.09121367

transformer.linear.bias f4 [64]
0	0x3dd06006	0.10174565
1	0x3d934a5d	0.07191918
2	0x3d925f03	0.07147028
3	0x3da3c171	0.079958804
4	0xbdb9d0f0	-0.09073055
5	0xbe168aee	-0.14701435
6	0xbda7575f	-0.081709616
7	0xbe132c76	-0.14372429
8	0xbdc0448d	-0.09388075
9	0xbe1976bb	-0.14986698
10	0xbdfca403	-0.1233597
11	0xbd874fbe	-0.066070065
12	0xbe0df2ab	-0.13862102
13	0x3dc3f5c3	0.0956836
14	0x3db11983	0.08647444
15	0xbdca58a6	-0.098801896
16	0x3e135cbd	0.14390846
17	0x3dedb024	0.11605862
18	0xbe0bc478	-0.13649166
19	0x3e15bd70	0.14623046
20	0xbe1682e5	-0.1469837
21	0xbdf2245e	-0.11823343
22	0xbe0e7633	-0.13912277
23	0x3cd386de	0.025821146
24	0x3deb757a	0.11497016
25	0x3e03cc8a	0.12870994
26	0xbdb8a755	-0.09016291
27	0x3da261eb	0.079288326
28	0xbe0bfc2c	-0.13670415
29	0x3e09c956	0.1345571
30	0xbdcc50ed	-0.09976373
31	0x3dd34f89	0.103179045
32	0xbb5f8ff0	-0.0034112893
33	0x3cf3c083	0.029754883
34	0x3d9b6e2f	0.07589375
35	0xbcc7c5a6	-0.024386238
36	0x3d5ff184	0.054673687
37	0x3d2e765a	0.042593338
38	0x3dc4fb46	0.09618239
39	0x3bbff673	0.0058582365
40	0x3d678853	0.056526493
41	0x3d62c03e	0.055359118
42	0xbc5cbd0a	-0.013472805
43	0x3d486f5d	0.04893433
44	0x3d531129	0.051530037
45	0x3d124023	0.035705697
46	0x3d772c87	0.0603452
47	0x3d0031e1	0.03129757
48	0x3d5be042	0.053680666
49	0xbbfa481c	-0.0076379906
50	0x3d55cf2c	0.052199528
51	0x3d128c81	0.035778526
52	0xbbde043b	-0.0067754067
53	0x3d939a29	0.07207138
54	0x3c96852b	0.018374046
55	0x3d195723	0.037436616
56	0x3d8e01d0	0.069339395
57	0x3d174b88	0.036937267
58	0x3cd7058d	0.026247764
59	0x3c5d763d	0.01351696
60	0x3d8c5ebc	0.06854007
61	0xbc7388a5	-0.014864122
62	0x3d4b77b0	0.04967469
63	0xb771fbbc	-1.4423331e-05
