GAN/training_runs/1/saved_models/Condition_Augmentor_1.pth (torch_old, 132331 bytes, 3 tensors)

transformer.bias f4 [64]
000000 c9 9f f8 3c 0d 81 38 3c c7 05 19 3d 6d b9 02 3d
       0.030349629 0.011261237 0.037359025 0.031915117
000010 b4 8d 17 bd 31 d8 5b bd cc a3 42 bd 00 91 a5 bd
       -0.037000373 -0.053672973 -0.04751949 -0.08084297
000020 1b 98 46 bd a3 68 42 bd 1b 6c 2e bd 77 f7 7e 3b
       -0.048484903 -0.04746307 -0.042583566 0.0038904825
000030 7a a3 2b bd 69 41 54 3d bd ff 1d 3d 9e d8 0e bd
       -0.04190395 0.051820192 0.03857397 -0.03487455
000040 96 15 48 3d bf ec 02 3d 20 3d cc bc bc 7d 6d 3d
       0.04884871 0.03196406 -0.02493149 0.057981238
000050 07 2c 68 bd c7 68 78 bc f5 d1 55 bd 08 8f a4 3c
       -0.056682613 -0.0151617 -0.052202184 0.020087734
000060 ed 83 17 3d 41 cb ef 3c ea ef 4f bd 00 43 5a 3d
       0.03699105 0.029271724 -0.05076591 0.053286552
000070 b4 4e 4f bd 07 41 26 3d 41 aa 42 bd d0 ee 10 3c
       -0.050612167 0.04058936 -0.047525648 0.008846
000080 07 32 37 3d 64 72 6f 3d 14 8d 87 3d 29 ce 8a 3c
       0.044725444 0.0584587 0.066187054 0.016944008
000090 70 73 9e 3c 46 c6 96 3d 31 5c c3 3d c5 a5 b4 3c
       0.019342154 0.073620364 0.095390685 0.022051701
0000a0 e1 ad 6c 3d 2b da 55 3d 13 01 2f 3d 0d 22 32 3d
       0.05778301 0.052210014 0.042725634 0.043489505
0000b0 cc a2 81 3d c6 dc e9 3d 35 77 88 3d a0 b7 8c 3d
       0.06329879 0.11419062 0.06663362 0.06870961
0000c0 8d 42 e4 3c 6f 70 31 3d 86 92 22 3d d8 32 a6 3c
       0.027863765 0.043320116 0.039690517 0.020287916
0000d0 36 3a 62 3d 80 33 69 3d ec 49 69 3d 6b 9c 97 3d
       0.055231296 0.05693388 0.056955263 0.07402881
0000e0 7a d8 6a 3d 32 ad 60 3d c7 a9 63 3d 8d 19 66 3d
       0.057335354 0.054852672 0.055581834 0.05617671
0000f0 70 a3 7c 3d 7e 6a b9 3c 13 a0 a0 3d 06 1f 6f 3d
       0.061679304 0.022633787 0.07843032 0.058379196

transformer.linear.weight f4 [64, 512]
000000 24 a6 91 3f 07 bd f0 3f ad af 39 3e 22 12 18 3f
       1.1378827 1.8807687 0.18133421 0.5940267
000010 76 37 20 be 62 7c 00 40 b7 9a 70 bf f6 c3 d9 3e
       -0.15646157 2.0075917 -0.93986076 0.4253232
000020 83 e0 f7 3f fe 3f a3 bf 2d 29 23 bf f0 16 7a be
       1.936539 -1.2753904 -0.63734704 -0.24422812
000030 83 d3 49 be 25 5b ff bf 83 26 09 bf 18 c8 7b be
       -0.19709592 -1.994969 -0.5357439 -0.24588048
000040 93 35 0a 3e fd 8b 5e bf 19 39 f3 3e a5 a2 1d bf
       0.13497 -0.86932355 0.475045 -0.615763
000050 a0 9d b2 bd 61 5b 9d 3f 0e ab 17 3e fc 21 63 3e
       -0.08721471 1.2293512 0.14811346 0.22180933
000060 d3 e5 fc be d6 6e 94 bd 2b 84 06 3f 65 e1 40 bf
       -0.49394092 -0.07247703 0.5254542 -0.75343925
000070 f0 7e db 3e ec 15 a5 3e a2 70 da 3e e8 f1 8c 3f
       0.42870283 0.32243288 0.42664057 1.1011324
000080 fa 76 7a be e3 31 98 bf 78 a7 ac be 23 d7 77 bf
       -0.24459448 -1.1890224 -0.3372152 -0.9681265
000090 e2 a1 91 3f 81 7b ca bd bd fa df 3f 9f c8 f1 3c
       1.1377528 -0.09886838 1.7498394 0.029514609
0000a0 5b 5a b1 bf 99 bf 02 3f 2f b9 a7 3e 61 ab ef 3e
       -1.3855699 0.51073605 0.3275847 0.4681044
0000b0 0d 4e 8b 3f de 14 90 be 3a f5 d2 3d e1 db 1f be
       1.0883194 -0.2814092 0.103006795 -0.15611221
0000c0 5b bf 9a 3f 06 c4 3e bf 67 11 ff be 09 97 b6 3e
       1.2089647 -0.7451786 -0.49817964 0.35662106
0000d0 89 f8 8f 3f 5c d0 74 bf bf 0b 50 3f 5a 59 0f bd
       1.1247722 -0.9563043 0.81267923 -0.03499732
0000e0 85 fc 14 3f d6 3e 4a bf cd 34 22 bf d3 81 76 3f
       0.58197814 -0.7900213 -0.6336182 0.96291846
0000f0 4a 00 9a bf 32 94 a3 bf ab 05 79 bf fd 3f f5 3e
       -1.2031338 -1.2779601 -0.97274274 0.47900382
000100 25 07 86 3f 21 9a 92 3f be a5 66 bf 5e 9c 3c 3f
       1.047093 1.1453286 -0.9009665 0.736761
000110 43 b3 48 bf 41 95 6f be 5b 80 a1 be 7c 75 06 40
       -0.7839853 -0.2339678 -0.3154324 2.1009207
000120 ce 30 86 bc cd 12 b7 be b6 60 bc 3f b6 ba 43 bf
       -0.016380694 -0.3575653 1.4717014 -0.76456773
000130 45 b5 5e bf a7 3f a5 3f f2 ce 80 3e 30 88 0e 3f
       -0.86995345 1.291005 0.25157887 0.55676556
000140 54 44 32 c0 09 46 05 bf 57 c8 68 3c 15 84 ce bf
       -2.7854204 -0.5205999 0.014207921 -1.6134058
000150 36 1d 18 3f cc 8c 2d 3e d4 a9 92 3f bf 80 a2 bf
       0.5941957 0.16948241 1.1458077 -1.269554
000160 5a 3c 39 3f 45 b0 dc be 76 c1 b9 be f4 b1 cb 3f
       0.72357714 -0.43103233 -0.3628041 1.5913682
000170 be 85 7e bf 6b e6 d0 3e 8b d8 76 bf c1 71 21 3c
       -0.99422824 0.40800795 -0.9642417 0.009853781
000180 54 d3 be 3e 8b 90 e2 3e 4e 87 1a 3f 28 23 08 be
       0.37270606 0.44250903 0.6036271 -0.13294661
000190 59 8f 34 3e cd 63 30 bf e4 b1 cd 3e 0c 8f 22 bf
       0.17632808 -0.68902284 0.40174782 -0.6349952
0001a0 f5 17 96 3e d8 fa e7 3f 89 06 84 3e 88 f5 f7 3e
       0.29315153 1.8123426 0.25786236 0.48429513
0001b0 39 02 68 be a0 5d 3f bf 84 1e 9f bf 1a 22 05 3e
       -0.22657098 -0.74752235 -1.2431188 0.1300129
0001c0 2f 6a 2d bf 16 29 61 3f ad c9 aa 3f 8a 54 19 3f
       -0.6774015 0.8795332 1.3342797 0.5989462
0001d0 b3 1f b1 3f 5b 58 82 3f 9c bb bb be e5 af 37 3e
       1.3837799 1.0183214 -0.36666572 0.17938192
0001e0 26 0f 76 bf c8 a9 ca 3d 58 35 9f bf 2b 15 94 be
       -0.96116865 0.098956645 -1.2438154 -0.289224
0001f0 d1 a6 9a bf eb e4 85 3f 09 16 c3 be 73 f0 c9 bf
       -1.2082158 1.0460485 -0.3810275 -1.5776504
000200 8c c2 3f 3f 50 99 79 bf cc 24 90 bf c0 71 e6 3d
       0.7490623 -0.9749956 -1.126123 0.11252165
000210 8a 86 cf 3f 0f 6d 58 3f c2 c3 5b 3e ae 81 bb bf
       1.6212933 0.8454141 0.21461394 -1.464895
000220 ca 8d dd 3e cc 8b 58 bd aa 2d 50 3f 46 79 4c bf
       0.4327224 -0.052867696 0.8131968 -0.7987255
000230 86 95 85 3f 5b 0c 9d bf 1c 41 63 3f 78 67 dd 3d
       1.0436256 -1.2269396 0.88771224 0.10810751
000240 77 18 93 3f ff 2f 8a bf 65 e6 4e 3f 1b f2 06 3f
       1.1491841 -1.0795897 0.80820304 0.52713174
000250 26 1f 47 3f 02 19 ef be 1e 5d 94 3f 5b 43 07 c0
       0.77781904 -0.46698767 1.1590917 -2.113486
000260 88 6b 27 40 f5 f0 9f bf a5 2c ac bf f6 e5 e9 3f
       2.6159382 -1.2495409 -1.3451124 1.8273304
000270 ce e8 6d bf 4e fb 72 bf ed 01 2d bf 62 51 44 bf
       -0.92933357 -0.9491471 -0.67581064 -0.7668668
000280 87 a5 6a 3f 90 bd a0 3e fc dc d9 be 8c f5 fe be
       0.91658825 0.31394625 -0.4255141 -0.49796712
000290 d5 69 6b 3f f4 c5 b8 bf d8 10 56 3d 96 06 2f 3e
       0.9195836 -1.443541 0.052262157 0.17092356
0002a0 19 31 83 3d 74 57 89 bf 45 04 02 3f 1d 3a c9 bd
       0.06405849 -1.0729814 0.50787765 -0.09825537
0002b0 da 00 81 3e a7 a6 2a bf c8 a4 ff 3f fa bc 02 3f
       0.25195962 -0.6666054 1.9972162 0.51069605
0002c0 8d 0e 1b 3c 72 24 e6 be cd 78 00 3f c6 24 07 be
       0.009463918 -0.4494968 0.5018433 -0.13197622
0002d0 19 f8 8e 3f d9 bb 0e 3d fc c4 0a bd ff b3 91 3f
       1.1169463 0.034847114 -0.033879265 1.1383055
0002e0 3e bd 8e 3d 0f 39 fa bd e9 22 95 3c ca 87 23 c0
       0.06969689 -0.12217914 0.018205123 -2.555163
0002f0 2b 02 31 3e 48 42 46 bf e1 cb 67 3f a5 46 d8 3d
       0.17285983 -0.7744489 0.9054547 0.105603494
000300 9f 11 8c bf a9 e8 45 3f 0a 6a 89 3d 7d 8c fa be
       -1.0942878 0.77308136 0.067096785 -0.4893531
000310 70 82 88 bf 42 c0 4b bf 06 b7 e3 be a3 39 48 3f
       -1.0664806 -0.7959024 -0.44475573 0.78212947
000320 dd 0f 86 3e 6d ab f8 bf fb eb ab 3e a0 b0 ea bc
       0.26183978 -1.9427315 0.33578476 -0.028648674
000330 9c e1 61 bf 41 8c 9e 3e c0 d8 31 3f 92 30 14 c0
       -0.8823488 0.3096638 0.6947136 -2.3154645
000340 36 cb c0 bd 21 9e e9 be d1 03 11 c0 7a 5b 91 3f
       -0.094137594 -0.45628455 -2.265858 1.1356041
000350 ed 44 08 bf 59 ed 59 bf 24 f0 c4 3f a5 15 e1 3f
       -0.5323017 -0.8512779 1.5385785 1.758473
000360 56 95 ce be 33 1b a5 3f e6 9a 87 3f d3 f8 d8 3d
       -0.4034831 1.2898926 1.0594146 0.105943345
000370 ee 70 49 3f 7b 57 26 bf f4 a8 e4 bf 7e 06 e4 be
       0.7868794 -0.64977235 -1.786406 -0.44536203
000380 90 83 c4 be fa f4 a9 bf f3 b4 0d c0 9b 93 76 bd
       -0.38381624 -1.3277886 -2.2141693 -0.06019936
000390 67 8c 8a 3f 1f a5 88 3f 1e 2b 41 bf 65 16 62 bf
       1.0824097 1.0675391 -0.75456417 -0.8831542
0003a0 b4 ee 87 3d ac ae ae bd cf 44 2a 3e 60 96 d0 bf
       0.06637326 -0.0852941 0.16627811 -1.6295891
0003b0 e6 7a 1f bf ff 39 19 3f 4d 7e 57 3c ac ac d6 be
       -0.62296903 0.5985412 0.013152671 -0.41928613
0003c0 5b c2 13 c0 8d 1c 37 bf b6 67 45 40 6d 4f 65 bf
       -2.3087375 -0.7152794 3.084455 -0.8957432
0003d0 4c b4 87 bf ef 96 32 3e f0 33 cc bf b6 c1 a0 3f
       -1.0601897 0.17440389 -1.595335 1.2559116
0003e0 aa d9 5d be 79 61 b6 bd c6 41 1a 3f ba 93 1c bf
       -0.21665064 -0.0890531 0.6025661 -0.6116291
0003f0 f0 36 99 bf cc 0d fe 3f 9b ed 0c c0 b3 f8 79 bd
       -1.196989 1.984796 -2.2020023 -0.061028194

transformer.linear.bias f4 [64]
000000 81 f5 3e 3d a2 e1 b6 3c a8 3f 9d 3b 9a f2 db 3c
       0.04662085 0.022324387 0.004798848 0.02684908
000010 5c 4b 13 bd da 98 b2 bd e6 48 25 bd 8f 11 d1 bd
       -0.03596054 -0.0872056 -0.040352724 -0.10208427
000020 c1 ab 14 bd 5f bd a9 bd 45 04 7e bd fe f1 ae bc
       -0.03629661 -0.08288073 -0.06201579 -0.021355625
000030 03 ca ad bd 71 3c 08 3d 3c 31 42 3d 90 da 32 bd
       -0.08485796 0.033260766 0.047410235 -0.04366547
000040 53 31 a9 3d 9b e2 68 3d f7 c4 88 bd 9e c7 c2 3d
       0.08261361 0.056856733 -0.06678193 0.0951073
000050 ad 07 ab bd 5a 3e 5f bd f6 a7 af bd 70 f8 cb 3b
       -0.083510734 -0.054502822 -0.08576958 0.0062246844
000060 50 f9 6d 3d b7 05 85 3d 1f 78 27 bd 19 2d c2 3c
       0.05809909 0.06495231 -0.04088604 0.023703145
000070 f8 1c a0 bd 1a 23 9e 3d 4c 20 1f bd 0d e8 3b 3d
       -0.07818025 0.07721539 -0.03884916 0.045875598
000080 dd 3f 2e 3c 72 ea 46 3d 43 42 d6 3d ea c9 95 bc
       0.010635343 0.04856343 0.10461857 -0.018284757
000090 63 0d 7c 3d a8 cf 86 3d 84 5a 0d 3e 36 1d 04 3c
       0.061536204 0.06582576 0.1380406 0.008063605
0000a0 dd 6a a0 3d 47 fa 97 3d d3 6e dc 39 22 93 8c 3d
       0.078328826 0.074207835 0.0004204424 0.06864001
0000b0 eb 9e 95 3d 24 00 95 3d ee 61 b2 3d 56 58 56 3d
       0.07305702 0.072754174 0.08710085 0.052330337
0000c0 40 bf 78 3d dd 9d f3 3b 2c 4f 86 3d ad 4e 39 3d
       0.060729265 0.0074345903 0.065580696 0.045241047
0000d0 32 26 89 3c 58 94 be 3d 8e 74 19 3d ee 73 8e 3d
       0.016741846 0.09305638 0.03746467 0.069557056
0000e0 2f c8 a7 3d d3 1f 5f 3d 7c b6 4b 3d e5 66 04 3d
       0.08192479 0.05447371 0.049734578 0.03232469
0000f0 70 4b c0 3d b0 08 45 bc 2c 62 a9 3d 2e 88 9a 3c
       0.093893886 -0.012025997 0.08270678 0.018863764
